reports/experiments/nn_20251016_120430_nn_hidden(64, 32)_lr0.001/artifacts/model.pt (torch, 12861 bytes, 6 tensors)

net.0.weight f4 [64, 5]
000000 95 5c 71 be 41 de b2 3e 55 08 90 3e 15 83 f4 bd
       -0.23570473 0.3493519 0.28131357 -0.119390644
000010 e7 70 6c 3d ba c1 19 3d ee 82 e1 be 49 4e b4 be
       0.05772486 0.037538268 -0.44045204 -0.35215977
000020 2e ed 12 3d 67 1b 81 3e 9b 11 cc be 2d 9d ac bc
       0.035870723 0.2521622 -0.39857182 -0.021071041
000030 a6 66 55 be 71 df df be 63 ac 94 3e 2e 58 05 3d
       -0.20839939 -0.4372516 0.2903777 0.032554798
000040 d1 28 a3 bd bd b5 5d bd e1 98 e1 3e 3e 4f b2 3e
       -0.079667695 -0.054128397 0.4406195 0.34826082
000050 a0 e4 9e bd af bf b3 3e cf 3c 35 3e 91 44 24 3d
       -0.077584505 0.3510718 0.17698978 0.040104453
000060 7a fc 9b be ac f8 39 be fe 9a 9d be e1 3e 8f 3e
       -0.30466062 -0.18161267 -0.30782312 0.2797766
000070 18 6f 70 3e 2e 35 b9 3e b1 e8 11 be 96 48 a6 3c
       0.23479879 0.36173385 -0.14248921 0.020298284
000080 fa 24 0f be 5d 3d a6 be ce 79 b0 3e 77 b3 ab be
       -0.13978949 -0.3246869 0.3446793 -0.33535358
000090 9d ff aa bd 4b 2f a4 be 21 ba 7e be f1 b2 d9 be
       -0.083495356 -0.32067332 -0.2487569 -0.42519334
0000a0 0d 55 67 bd 68 a1 d4 3e 6e e7 9c be 36 ae 72 be
       -0.056477595 0.41529393 -0.30645317 -0.23699269
0000b0 fe 94 8f 3e 3a 99 d3 3e a0 d4 93 be a3 c8 cb 3e
       0.2804336 0.4132784 -0.28873158 0.3980151
0000c0 90 9c a4 be a8 02 84 3e 07 d4 d8 3d bc 63 03 bd
       -0.32150698 0.25783277 0.10587316 -0.032077536
0000d0 3c 5e f2 be 31 35 6b 3e 32 02 02 3d e4 e7 03 3d
       -0.4733752 0.2296951 0.031740375 0.03220357
0000e0 76 81 11 3d b4 bb 92 be 92 7b d5 3e aa c1 26 3e
       0.035523854 -0.2865883 0.4169584 0.16284814
0000f0 a1 fa d2 3d c9 39 a6 be fc b1 bc be e5 41 1a be
       0.1030171 -0.32465962 -0.3685454 -0.150642
000100 73 84 c4 be 53 71 a3 3e d5 24 ab be 0e e8 b7 be
       -0.383823 0.31922397 -0.33426538 -0.3591923
000110 e4 83 22 3e 3e fb e0 be 36 f7 11 3d 78 fe 41 be
       0.15870625 -0.43941683 0.03563615 -0.18944728
000120 d4 66 e3 be 5e e4 3d be 7b 6d 87 be 58 0f f0 3e
       -0.4441439 -0.18544146 -0.26450714 0.46886706
000130 a7 6b a6 3e eb de 27 be b0 de 84 bc 86 93 cb be
       0.32504007 -0.1639363 -0.016219467 -0.3976099
000140 84 d8 ba 3d b4 b7 e2 3e 29 1e b5 be 67 9f 19 3e
       0.09123328 0.4428078 -0.35374573 0.15002213
000150 7d 6b 06 be 9c 78 da be 86 6a 72 be d2 b3 71 3e
       -0.13126941 -0.42670143 -0.23673448 0.23603752
000160 a7 56 7a 3e 1b d7 c3 3e 59 26 28 bd 3e 0d 47 be
       0.24447118 0.3825005 -0.041052196 -0.19438645
000170 d2 29 a6 3d 93 f5 b3 3e fc 35 04 be 32 ab 3d 3e
       0.08113445 0.35148296 -0.12911218 0.18522337
000180 93 ee 7f be b0 f0 d3 3e a8 ed 5f 3e 5e e7 86 3e
       -0.24993353 0.41394567 0.21868002 0.26348394
000190 4a 19 95 3e 7e b8 84 bd 87 ca b5 be e6 68 a7 be
       0.29120857 -0.064805016 -0.3550608 -0.3269722
0001a0 4a a6 b9 be 57 ad ce 3e 60 d6 c6 be 3f 95 36 3e
       -0.3625968 0.40366623 -0.3883543 0.1783037
0001b0 0d 84 55 3b 69 cd 81 be 1b cd b1 be 88 1d 93 be
       0.003257993 -0.25352028 -0.34726796 -0.28733468
0001c0 85 ad 1e 3d 21 64 ae 3e b9 ca 9c 3e 4c f4 c1 3e
       0.0387397 0.34060767 0.30623415 0.37881696
0001d0 98 ae 42 3e a3 7c a1 3d 8a e8 a7 bd c7 be 99 be
       0.19011915 0.07885101 -0.0819865 -0.30028364
0001e0 21 98 c6 be 5c 87 b4 3e e8 e5 3d bc 00 5f b5 be
       -0.3878794 0.3525952 -0.011590458 -0.35424042
0001f0 cb 23 95 be 2e b8 90 be d7 50 a1 bd ff ff e8 3e
       -0.2912887 -0.28265518 -0.07876747 0.4550781
000200 79 bc 07 3e c1 11 cf 3e 6a 08 75 be 9f 45 c2 3d
       0.1325549 0.40443233 -0.23928991 0.094859354
000210 62 db 49 3d 31 4a d3 be 7f 50 98 3e 24 fd 28 bc
       0.049281485 -0.4126754 0.29748914 -0.01031426
000220 c4 96 70 3e eb 59 55 3e 99 8d e4 3d d2 0d 1f be
       0.23495013 0.20835082 0.1115982 -0.15532616
000230 07 f4 fd bd 8f 80 b7 be 5c d4 c0 3d f3 2a a9 be
       -0.1240006 -0.3584027 0.09415504 -0.3304058
000240 08 b4 85 3e f8 98 e7 3e 02 19 80 be d3 c5 a4 3e
       0.26113915 0.45233893 -0.2501908 0.32182178
000250 b7 b3 ec 3e 14 7c 46 be 87 07 4b 3e 41 01 5b be
       0.46230862 -0.1938327 0.1982709 -0.21387197
000260 eb 61 0c 3d f8 78 8f be 18 14 e3 be bd b4 14 bc
       0.03427307 -0.2802198 -0.44351268 -0.0090762945
000270 04 50 c6 3e fc 14 0d be 9f 5b ae bd 11 75 b9 be
       0.38732922 -0.13777536 -0.08513569 -0.36222127
000280 58 5e bb 3d ab 03 3c be 95 68 98 be cb b5 e9 3e
       0.09148854 -0.18360774 -0.2976729 0.4564651
000290 be 86 ac 3a 6a aa cf 3e 62 05 98 be f2 f8 f2 3d
       0.0013162715 0.40559703 -0.29691607 0.11863889
0002a0 8c fb 31 be bd 68 96 3e 1e 76 45 3d 9d 4f 1e 3e
       -0.17381114 0.29376784 0.04820835 0.15460058
0002b0 b7 98 23 3e d9 8a 9e be 86 9f 8f 3e c9 9b 88 3e
       0.15976225 -0.30965307 0.28051394 0.26681355
0002c0 73 1a e7 3d ce d0 d5 3d 6b 14 86 be df 8b 96 3e
       0.11284342 0.10440217 -0.26187453 0.29403588
0002d0 83 84 e3 3d 4e 7c d9 3e 66 43 54 be 86 6d 55 be
       0.11109259 0.4247765 -0.20728835 -0.20842561
0002e0 ff c5 a7 be 2c 7b 51 3b f2 2c c7 3e bd e0 9d be
       -0.32768247 0.0031964285 0.38901478 -0.30835524
0002f0 dd 01 7e 3d 33 46 da be bc 10 c2 be 87 24 c0 be
       0.062013496 -0.42631683 -0.37903392 -0.37527868
000300 21 b7 54 be e7 52 8e be 4a 9a 03 be 38 64 e4 3e
       -0.20772983 -0.27797624 -0.12851825 0.4460771
000310 12 76 d0 3e 5b 33 a6 bd 9e bc 96 bd a6 43 5b 3e
       0.4071508 -0.08115264 -0.073601946 0.21412525
000320 74 0b c4 be b9 8a ad 3e 8b 64 31 3e 88 f2 d6 bd
       -0.38289988 0.338949 0.1732351 -0.10495478
000330 0b f6 9b be 19 f2 52 3e 3c 03 39 3c 98 52 ab be
       -0.30461153 0.20600165 0.011292275 -0.33461452
000340 68 f5 e4 3e 2f 9f 7b bd c0 bf f3 3e 0a 5c f7 3e
       0.4471848 -0.061431106 0.4760723 0.48312408
000350 42 18 3e be 34 23 95 bd 68 d8 b9 3e a0 21 c7 be
       -0.18563941 -0.07282105 0.36297917 -0.3889284
000360 98 51 9c be 35 08 92 3e 97 5f 1f 3e f7 d4 9d bc
       -0.30531 0.28521886 0.15563808 -0.019266589
000370 64 58 4f 3a 49 e3 73 3e a7 e1 11 3e b5 a2 dc be
       0.00079095946 0.23817171 0.14246236 -0.43092886
000380 54 3b f9 bb ca 01 d5 3e 64 8b df be 82 ec 76 be
       -0.0076059494 0.41602927 -0.43661034 -0.24113658
000390 dd 71 86 3d 32 aa 35 3d 36 cd 97 be 8a a8 bc be
       0.065646864 0.044351764 -0.2964875 -0.36847335
0003a0 4e 3d 79 bc a7 4a 4b be f6 bb 15 3e 1e 0f 8e be
       -0.01521237 -0.19852696 0.14622483 -0.27745908
0003b0 99 7a 4c 3e 48 d0 6f be b9 da 72 3e 2b a1 71 bd
       0.19968642 -0.23419297 0.23716249 -0.058991592
0003c0 f2 93 9d be e3 9e a8 be a0 97 15 3e 15 4f b8 be
       -0.30776936 -0.3293372 0.14608622 -0.35997835
0003d0 e1 49 8d bd d1 6a 94 3e 32 90 4f be 90 3d 4b 3d
       -0.06898857 0.28987744 -0.2026985 0.049619257
0003e0 cd db 6f bd 86 1a ac 3e ae 20 9b be 82 d5 c6 3e
       -0.058559228 0.33613986 -0.3029837 0.3883477
0003f0 e6 ee ad be 39 f0 6d 3d 1c bd b3 be 38 7e 48 3e
       -0.33971328 0.058090422 -0.35105217 0.19579399

net.0.bias f4 [64]
000000 c1 8c 9f 3e 2c 3c b1 be b6 73 e3 3d 53 0a 6f be
       0.31162074 -0.3461622 0.111060545 -0.23343782
000010 e1 c5 cd 3e 69 d4 1a be bd ef b2 3e 4a 42 8b 3e
       0.40190032 -0.1512009 0.3494853 0.27199012
000020 af a4 e2 3e 30 f7 56 3e e9 c2 2b bd 4e 69 69 be
       0.4426627 0.20992732 -0.041933928 -0.22794077
000030 55 29 3c 3e d1 51 51 3e e9 d5 c8 3b 73 b5 19 be
       0.18375142 0.20441367 0.0061290157 -0.15010624
000040 30 41 bd 3e ad be b5 3e a9 bf 2b bd ca f1 af 3e
       0.36963797 0.35497037 -0.04193083 0.34364158
000050 b1 93 f4 bc c5 67 5d 3e 6f 18 e9 3e c7 82 61 3c
       -0.029855581 0.21621616 0.45526454 0.01376409
000060 13 5f ce 3d ec fd 63 be 05 da c6 3e 11 76 99 be
       0.10076728 -0.22264832 0.3883821 -0.2997289
000070 21 3e a5 3d df 69 d6 3d ed 8d 15 be f2 f9 22 bd
       0.08068491 0.10469412 -0.14604922 -0.039789148
000080 1e 53 49 bd 24 4e c4 be c8 5f 45 bb b5 fa 64 be
       -0.049151532 -0.38340867 -0.0030116905 -0.22361262
000090 cd 1a 73 3d 82 01 d6 be 5d 19 b2 be 7b c0 54 be
       0.05935173 -0.41798025 -0.34784976 -0.2077655
0000a0 c5 2f 66 3c 57 1f ab 3e 16 cb 92 3e db b3 42 be
       0.014049475 0.33422348 0.28670567 -0.19013922
0000b0 36 72 bd be 17 bc 01 3f 6d 63 2a 3d c7 fb 98 bd
       -0.370012 0.5067763 0.041598726 -0.07469898
0000c0 fa c3 94 3e 76 08 20 be bd 83 f7 bd 6e 03 c2 3e
       0.29055768 -0.15628228 -0.12085674 0.37893242
0000d0 a4 28 1d be 58 08 5e be 04 23 9e 3e ad 80 db 3e
       -0.15347534 -0.2168287 0.3088609 0.4287161
0000e0 a2 97 a5 3d 56 4c 0b be 87 fa ba 3d 0c b2 a9 bd
       0.08085562 -0.13603339 0.091298155 -0.08285913
0000f0 4d 7a 37 be e7 d1 c3 3d c5 e8 17 3e 87 4c a2 3e
       -0.17917748 0.0956152 0.14834888 0.3169901

net.2.weight f4 [32, 64]
000000 f9 5a e0 3c e4 a1 91 3d 00 66 e4 39 c3 6c 76 bc
       0.02738713 0.07110956 0.00043563545 -0.015040579
000010 b2 06 cf 3d ef 74 93 bd 00 b6 46 3b 4c d5 75 bd
       0.10108699 -0.07200038 0.0030320883 -0.06001787
000020 a5 c5 12 3e 69 7f e9 3d aa 0f d2 3d 7a 49 7d 3d
       0.14333208 0.11401255 0.10256894 0.06183765
000030 80 72 ff 3b c0 ca f6 bc 4c 04 87 3d ce 37 09 3e
       0.007795632 -0.030125976 0.065926164 0.13400194
000040 32 25 6b 3b 41 7f 24 3c e0 61 16 3e 6f 1a ed bc
       0.0035880324 0.010040105 0.14685774 -0.028943269
000050 70 aa 03 bd bd 37 57 be 04 99 22 be a3 e2 87 3d
       -0.032144964 -0.21017356 -0.15878683 0.066350244
000060 cc ea 61 bd f1 7f 34 3c 28 2a a0 3c c7 05 a0 bd
       -0.05515556 0.011016832 0.019551352 -0.07813602
000070 54 f6 30 bd 0d 20 9e 3c 20 ae 03 3c 41 c4 b3 bd
       -0.043203667 0.019302392 0.00803712 -0.08777667
000080 1c af 25 3e 8a 94 28 3c 11 44 34 bd 92 b1 fa 3d
       0.1618008 0.010289321 -0.044010226 0.122409
000090 06 ce d2 3d 68 e8 4d bd dc 49 a1 3d 74 cc 91 3c
       0.10293202 -0.050270468 0.07875416 0.017797686
0000a0 26 a2 e0 bd 39 35 28 3e 59 da 5d 3b 34 15 04 3d
       -0.10968427 0.16426553 0.003385207 0.032246783
0000b0 3e 8d af bd 48 cc 35 be a0 02 66 bc f4 2e e6 bd
       -0.08571862 -0.17753708 -0.014038712 -0.11239424
0000c0 7c ea ad bd 35 28 95 bc 3e 7a 9d 3d 43 60 0b 3d
       -0.0849199 -0.018207649 0.076893315 0.03402735
0000d0 b0 e0 88 bd 1f 4c a0 3d a8 71 4d 3d f6 8a ee bd
       -0.06683481 0.07827019 0.05015722 -0.116475984
0000e0 3a 81 c1 bd 68 20 c3 bd 9a f0 97 3d a4 1c cd 3d
       -0.09448476 -0.095276654 0.07418938 0.100152284
0000f0 ab a4 16 3e 40 88 ad 3d b9 94 46 3d e7 89 0a 3e
       0.14711253 0.08473253 0.048481677 0.13529168
000100 a0 80 a9 3b 1c 69 1c 3d 74 ec 15 bd 90 53 40 bc
       0.005172804 0.038186178 -0.036602452 -0.011738673
000110 36 fe a0 3d e6 4a 99 3d 60 e2 e7 bc 48 71 88 bc
       0.07860987 0.07484989 -0.028306186 -0.01665558
000120 c0 4f 68 3c 50 5e 84 3c 88 56 76 3d ac 4e b4 bd
       0.01417917 0.016158253 0.060141116 -0.08804068
000130 f0 89 24 3d d8 e5 92 bd 00 c4 94 3b 40 13 c2 3c
       0.04017061 -0.071727455 0.0045399666 0.02369082
000140 90 84 ed 3d f8 5b de bd 80 70 3a 3b b8 81 88 3d
       0.1159755 -0.108573854 0.0028448403 0.06665367
000150 c0 da a8 bb 68 eb 99 bd 54 df 63 3d 7a b5 fa bd
       -0.00515303 -0.07515603 0.055632904 -0.12241645
000160 90 d6 4d 3c 80 bc f5 3c d0 a6 e1 3d 3c 5b 7b bd
       0.012563363 0.02999711 0.11018145 -0.061366305
000170 1a de aa 3d 56 8d c1 bd a0 5c f1 bc d0 c4 90 3c
       0.08343144 -0.09450786 -0.029463112 0.017671973
000180 1c 9e 67 bd 70 aa 93 3c ac 36 0a 3d 0c f7 9a bd
       -0.05654727 0.018025607 0.033743545 -0.07566652
000190 7c da cb bd 12 bf f7 bd c8 7e d7 3d 3c 42 9e bd
       -0.09953782 -0.12096991 0.105222285 -0.07727477
0001a0 b4 3a 77 bd b0 d9 73 3d 14 cd 01 bd 6a 94 f7 3d
       -0.060358718 0.059533775 -0.03168972 0.120888546
0001b0 da 27 8f bd e8 5a 4d 3d 08 dc 20 3d aa b4 e2 3d
       -0.06990023 0.050135523 0.03927234 0.11069615
0001c0 92 bb 8b 3d b8 ad b4 3c 40 8b 89 3b 88 1d 94 bc
       0.068228856 0.022055492 0.004197508 -0.018080488
0001d0 2a b4 d2 bd d6 0a ed bd 98 b4 5a bd b4 3a f8 bd
       -0.1028827 -0.115743324 -0.053394884 -0.12120572
0001e0 a2 48 92 3d 4c f1 83 3d a8 a0 b2 3d 38 69 5f 3d
       0.0714276 0.06442508 0.08722049 0.054543704
0001f0 a0 ff db 3d d4 84 10 bd 18 3a e2 bc 30 6a 4f bc
       0.10742116 -0.035282925 -0.027615592 -0.012659594
000200 98 94 7c bd ca 43 fa 3d c4 d2 d9 bd 20 0e b0 bc
       -0.061665148 0.12219961 -0.106359035 -0.02149111
000210 e0 d1 da 3b a0 f4 15 bd 66 d9 b8 bd 88 e2 8b bc
       0.006677851 -0.036610246 -0.090258405 -0.017075792
000220 9a c0 d0 bd 04 e5 8f bd f0 ac 1b bc 40 8a 1c bb
       -0.10192986 -0.07026103 -0.009501681 -0.0023886114
000230 14 6d f1 bd 58 59 c0 3d cc ed 56 3d ea c3 bc 3d
       -0.11788383 0.09392041 0.052472875 0.09217055
000240 e8 8a 5c 3d c0 2d c1 3b 64 bc 67 3d e8 b5 85 bd
       0.05384341 0.0058953464 0.056576148 -0.065288365
000250 3e 35 d7 3d 74 6b 87 bd 10 34 3d 3c 86 02 ea 3d
       0.10508202 -0.06612292 0.011548057 0.114262626
000260 30 04 3f 3d 48 30 8f bd 20 ab 12 bd be a2 b9 3d
       0.046634853 -0.06991631 -0.03580773 0.09064244
000270 c6 18 e0 bd 20 8d ee bd 50 7a be 3d 90 b7 8b 3c
       -0.10942225 -0.11648011 0.09300673 0.017055303
000280 ec 8d db bd 5c cb b5 3d 80 a3 cb ba f8 f0 b7 3d
       -0.10720429 0.08876678 -0.0015536398 0.08981508
000290 66 4d 8b 3d 4c 1f 1b bd 6c 3e ac 3d f0 b0 bf 3c
       0.06801872 -0.037871644 0.084103435 0.0233998
0002a0 68 f8 be bd ac d4 41 bd 74 56 96 3d 58 1e 8c 3d
       -0.093247235 -0.04732196 0.073407084 0.06841725
0002b0 78 5b 5b 3d ac c8 53 bd 74 24 96 bd 3a da c3 3d
       0.05355403 -0.051705047 -0.07331172 0.09563108
0002c0 f4 97 e0 bd 62 27 c6 bd 80 9f ad bc a4 aa 97 3d
       -0.10966483 -0.096754804 -0.02119422 0.07405594
0002d0 d8 ac ce 3c 44 3a a2 3d a0 17 b7 bd 5e c0 c2 bd
       0.025228903 0.079212695 -0.08940053 -0.095093474
0002e0 fc ea 4a bd 98 ef 29 bd 00 ba c1 3c 70 bf aa 3d
       -0.049540505 -0.04148826 0.023648262 0.08337295
0002f0 ba e3 a1 bd fa 3e a0 bd 52 e4 88 bd 7a 64 e3 bd
       -0.079047635 -0.07824512 -0.06684174 -0.11103149
000300 03 d7 c5 3d 4e 25 ad 3d 10 24 65 3c 58 cb e0 3d
       0.09660151 0.08454381 0.013985649 0.10976285
000310 9b 1e 33 3e ac fa b1 bd 1a dc f6 bd 50 c2 fb 3d
       0.17492144 -0.0869039 -0.120537 0.122929215
000320 0b 11 87 bd 82 04 20 3d 93 99 72 3c 58 12 46 3d
       -0.065950476 0.0390668 0.014807123 0.048357338
000330 46 e8 dc bd c8 5f e8 bd d0 0d 8b 3c 03 01 f8 3d
       -0.1078649 -0.11346394 0.01697436 0.12109568
000340 1e 23 82 bc b8 52 fa 3d 12 a9 f2 3d 29 5b 8f 3c
       -0.015885886 0.122228086 0.11848654 0.017499523
000350 88 a6 3b bd 53 c7 ae be b0 09 f0 3b 6c dc 7b 3b
       -0.045813113 -0.34136447 0.0073253736 0.0038430942
000360 38 cd e7 bc 37 2b 23 3b c3 8f ba bd 3a 1e 00 3e
       -0.028296098 0.0024897584 -0.091094516 0.1251153
000370 08 c3 63 bd 2d 9c 15 3e 98 6b b9 bd 8a fc 4b bd
       -0.05560592 0.14610358 -0.09053725 -0.049801387
000380 23 62 dc 3d 38 1e 9e 3d 5f 13 41 3d c0 b2 8b 3d
       0.107609056 0.077206075 0.047137614 0.06821203
000390 58 d3 81 bc 20 92 64 3d d6 ad c4 3d bf ec ea 3d
       -0.015847847 0.05580342 0.09603469 0.11470937
0003a0 2e 38 b2 bd 22 a6 2f bc b2 62 24 3e 80 cc 93 3c
       -0.08702122 -0.0107207615 0.16053274 0.01804185
0003b0 50 55 a4 bd 35 86 21 be 34 1c 36 3d 69 de 89 bd
       -0.080240846 -0.15773852 0.04446049 -0.067318745
0003c0 80 8c f6 bc df f1 be bd a8 3b 2b 3d d2 2d 0c 3e
       -0.030096292 -0.09323477 0.04180494 0.13689354
0003d0 7a 19 ee 3d 8b e4 1a bd 97 9d ca 3d 00 57 b8 ba
       0.11625953 -0.03781561 0.09893339 -0.0014064014
0003e0 cf 32 e8 3d b3 35 de 3c e2 9f a2 3d 60 89 52 bc
       0.11337816 0.027125215 0.079406515 -0.012850136
0003f0 9f 36 c9 bd a2 1a 87 bd d3 36 c5 bd 52 c1 64 3d
       -0.09824871 -0.06596877 -0.096295975 0.055848427

net.2.bias f4 [32]
000000 b2 79 be bd c0 de 87 bc 4e 63 ac bd 99 dd d6 3c
       -0.09300555 -0.016585708 -0.08417378 0.026228713
000010 ad 0a 6c bd c1 83 d8 3c be 61 ef bd 20 ae f0 bd
       -0.05762737 0.026430013 -0.11688565 -0.11751962
000020 b2 6d 96 bd 74 8f 8b 3d f5 10 c8 3d 50 8c ef bd
       -0.073451415 0.06814471 0.09768859 -0.11696684
000030 30 b2 ce 3c f4 44 aa bd 00 fe 77 3c 27 e1 e4 bc
       0.02523145 -0.08313933 0.015136242 -0.027939392
000040 4b 92 23 bd be 9e c6 3d 77 48 bf bd 58 b2 89 bd
       -0.039934438 0.096982464 -0.093399934 -0.067234695
000050 06 c8 83 3d 22 d1 f0 3c 02 2d 37 bc e1 2d 77 3d
       0.06434636 0.029396597 -0.011180164 0.060346488
000060 2d f6 a1 3d 5d 7a 33 3d c4 cf 4c 3d 60 87 d4 3d
       0.079082824 0.043817867 0.05000283 0.10377383
000070 04 8e b6 3d 01 bf 23 bd 2a b4 65 3d 04 63 39 ba
       0.08913806 -0.039977077 0.05608002 -0.00070719444

net.4.weight f4 [2, 32]
000000 5b 38 ee 3d 4c aa 94 bc db 64 1b 3e e9 63 ba bd
       0.11631843 -0.01814761 0.15175192 -0.091010876
000010 1b 26 90 3d 82 3f 24 3e 71 e4 2a be d1 59 eb 3d
       0.07038518 0.16039851 -0.16688706 0.114917405
000020 3c ef 53 3e e4 cb 2b 3e 3a 92 4a 3e 57 3f 71 bd
       0.2069673 0.16776997 0.19782344 -0.058898296
000030 44 4a bb bd 45 a2 92 bb 5e 74 16 3e cf 90 d9 3d
       -0.091450244 -0.0044749104 0.14692828 0.10623323
000040 62 0a 33 bd 94 89 28 3e b1 07 06 bd d5 0d 0b bd
       -0.043711074 0.16458732 -0.03272218 -0.033948738
000050 f8 b9 6c 3d f1 91 4a 3e 0d ef 4e bd e7 09 42 bd
       0.05779454 0.19782235 -0.050520945 -0.047372725
000060 10 9b 3f 3e 8d c4 ef 3d e0 26 25 be cc 4a a8 3c
       0.18711495 0.11707411 -0.16128111 0.020543478
000070 14 e9 cb 3d ef b6 1b 3c b9 66 c5 3d 4e 13 09 3e
       0.099565655 0.009504064 0.096387334 0.1338627
000080 98 50 af 3c f7 72 ba 3d ee f2 b4 3d 12 6b 29 3e
       0.021400735 0.09103959 0.08835398 0.1654475
000090 a6 00 fc bd 65 0a 0e be fd 26 d5 3c 91 38 02 be
       -0.12304811 -0.13871153 0.026019568 -0.12716891
0000a0 21 03 ae 3c d6 b2 09 3d 08 f1 e6 3d ad 62 f7 bd
       0.021241726 0.033617817 0.11276442 -0.12079368
0000b0 18 9e 11 be 7c d2 29 3e e6 5b 42 3d 2b 59 cd bd
       -0.14220464 0.165842 0.047450922 -0.10026773
0000c0 7c 59 fe bd f7 70 93 3d 15 e6 54 3e 5b 0e c5 3d
       -0.124194115 0.07199281 0.20790894 0.09621879
0000d0 54 11 ac 3d 0e 0a 56 3d 89 b5 f2 3d 47 bd 0a 3e
       0.084017426 0.052255683 0.11851031 0.13548766
0000e0 5f 88 40 bd 58 df ec 3c 25 8e 64 3d 2e fa 2c 3e
       -0.047005054 0.028915092 0.055799622 0.16892311
0000f0 71 46 3a bc 09 ec 67 bb e6 1b 59 3e 2a 65 46 bd
       -0.011369334 -0.003538849 0.21202049 -0.04843632

net.4.bias f4 [2]
000000 2c 75 c8 bd 59 52 f1 bd
       -0.09787974 -0.11783285
