reports/experiments/nn_20251016_130438_nn_hidden(32, 32)_lr0.0005/artifacts/model.pt (torch, 7997 bytes, 6 tensors)

net.0.weight f4 [32, 5]
0	0xbe948c9f	-0.29013535
1	0x3e365ea5	0.17809542
2	0x3e1095a7	0.14119588
3	0xbe893268	-0.2679627
4	0x3eecd1ae	0.46253723
5	0x3ec832cf	0.39101264
6	0x3ee3dff4	0.445068
7	0xbea21bfd	-0.31661978
8	0x3d1d5c66	0.038418196
9	0x3e341909	0.17587675
10	0xbdefa462	-0.117012754
11	0x3ec2c78b	0.38042864
12	0x3e600a00	0.21878815
13	0xbd9d00b9	-0.076661535
14	0xbebef762	-0.37298113
15	0x3d9f297f	0.077715866
16	0x3eb2a984	0.34894955
17	0xbd8ec096	-0.069703266
18	0xbe83f5f3	-0.25773582
19	0x3dc7050f	0.09717762
20	0xbea1739b	-0.31533512
21	0xbe9dcbb7	-0.30819485
22	0xbe52a16c	-0.2056939
23	0xbe71e82b	-0.23623721
24	0xbe8c3982	-0.27387625
25	0xbec56856	-0.38556165
26	0xbeb82ad1	-0.35970166
27	0xbecb4f9b	-0.39709172
28	0xbedfc598	-0.4370544
29	0xbeb503af	-0.35354373
30	0xbe3e3821	-0.18576099
31	0xbe1f5c0d	-0.15562458
32	0x3ea9569d	0.33073893
33	0x3e775df8	0.2415694
34	0xbd0decc6	-0.034649633
35	0xbe00210c	-0.12512606
36	0xbe8d872b	-0.27642187
37	0xbe5eb250	-0.21747708
38	0xbc0ac8a9	-0.008470693
39	0xbd1159a0	-0.035485864
40	0x3ebe9a09	0.37226894
41	0xbda93d96	-0.082637
42	0xbea12c8b	-0.31479296
43	0x3e96b43a	0.29434377
44	0xbdd388c7	-0.103288226
45	0xbeb91aed	-0.36153355
46	0xbed0df36	-0.40795296
47	0x3eb722e0	0.35768795
48	0xbea0366a	-0.31291515
49	0xbe039eb5	-0.1285351
50	0x3cac272c	0.021014772
51	0x3e94b71b	0.29045948
52	0xbe3db1e5	-0.18524893
53	0x3d8b99cc	0.06816444
54	0x3b54747d	0.0032418065
55	0x3de9fd5a	0.11425276
56	0x3ed12eb6	0.4085595
57	0xbedd7afa	-0.43257886
58	0xbe811e0c	-0.25218236
59	0xbe409253	-0.18805818
60	0x3ee2adde	0.44273275
61	0x3e6189e4	0.22025257
62	0x3ef2a688	0.47392678
63	0x3d1f1d6e	0.038846426
64	0xbea51848	-0.32245088
65	0xbede4cd5	-0.43417993
66	0xbe3d080f	-0.18460105
67	0x3e8550f5	0.26038328
68	0xbec691be	-0.38783067
69	0x3ea72b07	0.32650015
70	0xbe5189cc	-0.20462722
71	0x3e210110	0.15723062
72	0x3ee85411	0.45376638
73	0x3e7faed7	0.2496904
74	0xbe715d1c	-0.23570675
75	0x3e8ef6f6	0.2792279
76	0x3da9fc1e	0.08300041
77	0xbe116fd5	-0.14202817
78	0xbda1aad3	-0.0789391
79	0xbe9ac500	-0.30228424
80	0x3e3e84b5	0.18605311
81	0x3c74e360	0.014946789
82	0x3ea2609c	0.31714332
83	0xbe79febb	-0.24413578
84	0x3ea496cf	0.32146308
85	0x3c6c29ae	0.014414234
86	0xbcb06586	-0.021532785
87	0x3e8acde5	0.2711021
88	0xbee41982	-0.4455071
89	0x3eb990f0	0.3624339
90	0x3cbf64f6	0.023363572
91	0x3e9907bc	0.29888713
92	0xbdae0397	-0.084967785
93	0x3eb6ca4b	0.35701212
94	0xbe97832a	-0.29592258
95	0x3e6baa06	0.23014078
96	0xbe93bb2d	-0.2885374
97	0xbe9deb23	-0.30843458
98	0x3ea097f1	0.31365922
99	0xbe32fbf8	-0.17478931
100	0x3e84f1d2	0.25965744
101	0xbd7aefa5	-0.0612637
102	0xbed88b1d	-0.42293635
103	0x3eda1550	0.42594385
104	0x3e5eb000	0.21746826
105	0xbe51823a	-0.20459834
106	0xbec38242	-0.38185316
107	0x3e763cfa	0.24046698
108	0xbe9e7973	-0.30952033
109	0xbe081814	-0.13290435
110	0x3dc269e6	0.09492855
111	0xbed75b77	-0.4206197
112	0xbed50ff7	-0.41613743
113	0xbdee3888	-0.11631876
114	0x3e7af7c4	0.24508578
115	0x3e3eba94	0.18625861
116	0x3ddbe57d	0.10737131
117	0x3e3e7364	0.18598706
118	0xbdc1505e	-0.09439157
119	0x3d819765	0.06327704
120	0x3ecb9cbf	0.39768025
121	0xbe4dbcb3	-0.20091514
122	0x3e13cd96	0.14433894
123	0x3e0c7c89	0.13719381
124	0xbeabb8ec	-0.33539522
125	0xbe41937c	-0.18903917
126	0x3edc6b86	0.43050784
127	0xbec81903	-0.39081582
128	0x3edfbba6	0.43697852
129	0x3ef4fe83	0.47850427
130	0x3edb4931	0.42829278
131	0xbe3efcb5	-0.18651088
132	0x3ee2a3f6	0.44265717
133	0xbd4e46ab	-0.050360363
134	0xbd16d406	-0.036823295
135	0x3ec3589d	0.38153544
136	0xbdf11546	-0.11771636
137	0xbead9a0b	-0.33906588
138	0x3ee15a24	0.44014084
139	0x3e9d5e2d	0.30735913
140	0x3ebb8a1f	0.36628816
141	0x3e9e32df	0.30898187
142	0x3eab3054	0.3343531
143	0xbe8d8800	-0.27642822
144	0xbeca1138	-0.39466262
145	0x3ea2663c	0.31718624
146	0x3ef73374	0.48281443
147	0x3d89c061	0.067261465
148	0x3e2650ae	0.16241714
149	0xbea5f6ed	-0.32414952
150	0x3ef320b4	0.47485888
151	0xbea74e87	-0.326771
152	0x3e9253f9	0.2857969
153	0x3e71e52a	0.23622575
154	0x3eac14ee	0.33609718
155	0xbea4e6ac	-0.3220724
156	0x3ea32816	0.3186652
157	0x3d3b05ec	0.045659944
158	0xbee4b296	-0.446675
159	0x3e5af35d	0.21381898

net.0.bias f4 [32]
0	0x3e729f97	0.23693691
1	0xbe8cc79e	-0.27496046
2	0x3e143856	0.14474615
3	0x3e8e960b	0.2784885
4	0xbe6c24e8	-0.23060954
5	0x3df3c7a6	0.11903314
6	0x3e682899	0.22671737
7	0xbe5c706a	-0.21527258
8	0xbe84a121	-0.25904182
9	0xbdae8d2a	-0.08523019
10	0x3e13df30	0.14440608
11	0x3ddafd1a	0.106928065
12	0x3e96f9e4	0.29487526
13	0xbe267f49	-0.16259493
14	0x3c3328fa	0.010935063
15	0xbdf2b887	-0.11851602
16	0x3ed37bc3	0.4130536
17	0x3e5b38de	0.21408412
18	0x3d6c8a70	0.05774921
19	0xbe7c2aeb	-0.24625747
20	0x3e339ba0	0.17539835
21	0x3ee4775e	0.4462232
22	0xbed0c101	-0.4077225
23	0xbe4ad9ee	-0.19809696
24	0xbe086e18	-0.13323247
25	0x3e3a9524	0.18220955
26	0xbd47e99e	-0.04880678
27	0x3ecf5ab1	0.4049888
28	0xbeb5e20f	-0.35524032
29	0x3ef61893	0.48065624
30	0x3ec98f67	0.3936722
31	0x3e5f17ca	0.21786419

net.2.weight f4 [32, 32]
0	0x3e05b6c1	0.13057996
1	0x3daffc57	0.08593052
2	0xbd8db9d1	-0.06920207
3	0x3e3d1839	0.18466271
4	0xbe18025b	-0.14844649
5	0xbe2e30a6	-0.17010745
6	0x3e2b5a85	0.16733749
7	0x3d8511d7	0.06497543
8	0x3d5c9bcd	0.05385952
9	0xbe051c4c	-0.12999076
10	0xbb9a1df6	-0.0047032787
11	0xbe2f2ffa	-0.17108145
12	0x3e5de6cb	0.21670072
13	0x3c8492ea	0.016183335
14	0x3dc26491	0.09491838
15	0xbd9e8f99	-0.07742233
16	0x3e4fc02e	0.20288154
17	0x3cda232c	0.0266281
18	0xbcd083dd	-0.025453502
19	0xbe1683e5	-0.14698751
20	0x3d027ad1	0.031855408
21	0x3e12108d	0.14264126
22	0x3e09eea6	0.13469943
23	0xbdb1f417	-0.086891346
24	0xbdfa8491	-0.12232316
25	0x3d0cc568	0.03436795
26	0x3ddf6956	0.10908763
27	0xbd14efb5	-0.036361415
28	0x3e3c717d	0.18402667
29	0x3e1f2614	0.1554187
30	0x3b0e4b69	0.0021712428
31	0xbcd03ab3	-0.025418615
32	0x3d2ad5fa	0.04170797
33	0xbdced787	-0.10099702
34	0xbd0943ca	-0.033511914
35	0xbd0e6cec	-0.034771845
36	0xbccccee8	-0.025001004
37	0xbdb275ce	-0.08713876
38	0x3da6a1fb	0.08136364
39	0xbc6c0a57	-0.014406762
40	0xbe34134b	-0.17585485
41	0x3bc50ef1	0.006013744
42	0xbe111af4	-0.14170438
43	0x3daef12f	0.08542096
44	0xbd9dad78	-0.07699102
45	0xbdbd336f	-0.09238326
46	0xbb18222b	-0.0023213725
47	0x3c9037ae	0.017604675
48	0x3bd383aa	0.0064549046
49	0x3d82841b	0.06372853
50	0xbd95c828	-0.073135674
51	0x3e0d741c	0.13813823
52	0x3e1274b5	0.14302333
53	0x3e003c89	0.12523092
54	0x3dc7fa5a	0.09764548
55	0x3da7f9f1	0.082019694
56	0x3e19c784	0.15017515
57	0x3e0f724d	0.14008446
58	0xbe3e7c5c	-0.18602127
59	0xbd822f09	-0.063566275
60	0xbd47690d	-0.04868417
61	0x3da24277	0.079228334
62	0xbd6913a4	-0.056903496
63	0x3dac5494	0.084145695
64	0xbda12f8c	-0.07870397
65	0x3c6b8d18	0.014376901
66	0xbe30c4d8	-0.1726259
67	0xbcf3bb47	-0.029752387
68	0x3d5b2b66	0.053508185
69	0x3deddf0a	0.11614807
70	0x3ce33875	0.027736882
71	0xbe2e9693	-0.17049627
72	0x3e06fc9f	0.13182305
73	0x3e0e65de	0.13906047
74	0x3da36faf	0.07980286
75	0xbe2dee0f	-0.16985343
76	0x3d52c072	0.05145306
77	0x3dda14ff	0.10648536
78	0xbd85643e	-0.0651326
79	0x3b2e249b	0.0026572112
80	0xbe2ae259	-0.16687907
81	0xbdb2022e	-0.08691822
82	0x3e20e983	0.15714078
83	0x3dc01125	0.0937827
84	0xbd127a01	-0.035760883
85	0xbe29db7a	-0.1658763
86	0x3e0c221d	0.13684888
87	0x3d8d4242	0.06897403
88	0xbe26284e	-0.16226313
89	0xbe271d0e	-0.16319677
90	0x3d6e1857	0.05812868
91	0xbe2552f4	-0.16144925
92	0xbe0d66d0	-0.13808751
93	0x3dfcb579	0.12339301
94	0xbe07b041	-0.1325083
95	0x3dcaae1d	0.09896491
96	0x3d69bd46	0.05706527
97	0xbe27ff54	-0.16405994
98	0x3e2cd00c	0.16876239
99	0xbddf84fe	-0.10914038
100	0x3d650869	0.055916224
101	0xbdc2bcaa	-0.09508641
102	0xbc36b6f0	-0.011152014
103	0x3da9c0a3	0.08288696
104	0xbd8e2c93	-0.069420956
105	0xbd46c800	-0.04853058
106	0x3e28b06b	0.16473548
107	0xbda37baf	-0.07982575
108	0x3dee219c	0.11627504
109	0x3dfbf053	0.123016976
110	0xbe0d29b0	-0.13785434
111	0x3d2d2075	0.04226728
112	0x3d8f5995	0.06999508
113	0xbe1544a7	-0.1457697
114	0xbe27d34f	-0.16389202
115	0x3db29ef3	0.087217234
116	0x3cb7aa89	0.022420185
117	0x3ccfde83	0.025374657
118	0xbd9dc333	-0.07703247
119	0xbe219c33	-0.15782242
120	0xbd4a2dc9	-0.04936007
121	0xbd973a68	-0.07384187
122	0xbe0885c6	-0.1333228
123	0xbca9e815	-0.020740548
124	0x3da65a44	0.081226856
125	0xbc87d4f3	-0.016581034
126	0xbe27c605	-0.16384132
127	0xbe0403c8	-0.12892067
128	0xbd1337c0	-0.03594184
129	0x3e2ad521	0.16682865
130	0xbe565b63	-0.20933299
131	0xbd85c3fb	-0.06531521
132	0x3d198400	0.0374794
133	0x3e07b048	0.1325084
134	0x3ddec194	0.10876766
135	0xbce86d9f	-0.028372584
136	0xbe1208da	-0.14261189
137	0xbda8c302	-0.0824032
138	0x3d686905	0.05674078
139	0x3cc61941	0.024181964
140	0x3e477f02	0.19482043
141	0xbdd54973	-0.104144
142	0x3e25525b	0.16144697
143	0xbe162e06	-0.14665994
144	0x3e29059b	0.16506045
145	0xbdbeb059	-0.093109794
146	0x3da8d3ba	0.08243509
147	0xbbd51b0e	-0.0065034693
148	0x3d76e4ce	0.0602768
149	0xbdcf02f2	-0.10107984
150	0xbd4a3f49	-0.04937676
151	0x3db114ac	0.08646521
152	0xbdb8df2d	-0.090269424
153	0xbca0f919	-0.019650029
154	0x3d961ab3	0.07329311
155	0x3df4bde0	0.11950278
156	0x3e48f0b8	0.19623077
157	0x3df99150	0.12185919
158	0x3e2d1acb	0.16904752
159	0xbda2ba5f	-0.07945704
160	0x3c8cb47b	0.017175904
161	0x3d442951	0.047890965
162	0xbe6258e5	-0.22104223
163	0x3e2513f5	0.16120894
164	0xbde75e31	-0.112972625
165	0xbc87ca85	-0.016576061
166	0x3e16df81	0.14733697
167	0xbb46e887	-0.0030351
168	0xbdd1ada1	-0.10238195
169	0x3df2180b	0.11820992
170	0x3e08f7aa	0.13375726
171	0x3e282e64	0.16423947
172	0x3c76a7a2	0.015054615
173	0x3dfe4914	0.12416282
174	0x3e0b2be2	0.13590959
175	0xbe260cb4	-0.16215783
176	0x3e350c03	0.17680363
177	0x3d9a5e4d	0.07537518
178	0x3d457454	0.048206642
179	0xbe332866	-0.1749588
180	0x3de22bb2	0.110434905
181	0xbdfc9f44	-0.12335065
182	0x3d47fff2	0.048828073
183	0x3d27efab	0.04100005
184	0x3e09d58c	0.13460368
185	0xbdfd446e	-0.123665676
186	0x3e56bc8b	0.20970361
187	0xbdf254be	-0.118325695
188	0xbd5ce67c	-0.053930745
189	0x3e44c027	0.19213925
190	0x3de2733d	0.11057136
191	0x3db19dda	0.08672686
192	0x3e39361c	0.18087047
193	0xbd810ba5	-0.06301049
194	0xbd4881bb	-0.048951846
195	0x3d104642	0.035223253
196	0x3da12954	0.07869211
197	0x3c2fcd23	0.010730061
198	0x3e55cbf7	0.20878588
199	0xbdfdc3f7	-0.12390893
200	0x3dd1db7b	0.10246941
201	0xbd0b260d	-0.033971835
202	0x3c0caabc	0.008585628
203	0x3cceb7b2	0.025234077
204	0x3d0925ac	0.033483192
205	0x3c490eec	0.012271624
206	0x3a6f3380	0.00091248006
207	0x3d8bcc71	0.068261035
208	0x3e516389	0.20448126
209	0xbcf45d96	-0.029829782
210	0x3e586cb9	0.21135224
211	0xbd07841e	-0.03308498
212	0x3d34e36f	0.04416221
213	0xbb292026	-0.0025806515
214	0x3d81160a	0.06303032
215	0x3e52fc25	0.20603998
216	0x3da31c7c	0.07964417
217	0x3e398117	0.1811565
218	0xbdde7951	-0.10862983
219	0xbca699f0	-0.020337075
220	0x3dc2e0f5	0.095155634
221	0xbdac7285	-0.0842028
222	0x3d802cce	0.06258546
223	0xbd8c6599	-0.06855316
224	0xbdc90218	-0.098148525
225	0x3e525b57	0.20542656
226	0xbd241a32	-0.040064044
227	0xbc859e23	-0.016310757
228	0x3d047cee	0.032345705
229	0xbd898fd4	-0.06716886
230	0x3de50be7	0.11183911
231	0x3e3415ad	0.17586394
232	0xbd21afe2	-0.039474376
233	0x3d3905ec	0.045171663
234	0xbe0c2367	-0.1368538
235	0x3e163c70	0.14671493
236	0xbd13b0e2	-0.03605736
237	0xbdc0b5d3	-0.0940968
238	0x3e2403cc	0.16017073
239	0xbd98cd83	-0.07461073
240	0x3e56f824	0.20993096
241	0x3e436597	0.19081722
242	0xbd84d4c9	-0.06485898
243	0x3e046426	0.12928829
244	0x3e48791d	0.19577451
245	0xbcf0d482	-0.029398207
246	0xbda8bc48	-0.08239037
247	0x3df1b4b5	0.11802045
248	0x3dc68ab4	0.09694424
249	0x3e361d78	0.17784679
250	0xbd006ff1	-0.031356756
251	0x3d0fb467	0.035084154
252	0x3ba4c3ab	0.0050282083
253	0x3d581ee6	0.052763842
254	0x3de195fc	0.110149354
255	0x3da1647e	0.078804955

net.2.bias f4 [32]
0	0xbe06754d	-0.13130684
1	0xbe24376f	-0.16036771
2	0x3cc3c52a	0.023897726
3	0xbd6b7989	-0.05748895
4	0x3e0b9ccd	0.13634034
5	0x3ddb897b	0.10719582
6	0x3cd85910	0.026409656
7	0x3de8f1cc	0.11374244
8	0xbd872119	-0.0659811
9	0xbe07e397	-0.13270412
10	0x3e46efcc	0.19427413
11	0xbdb61534	-0.08890763
12	0x3e045b4f	0.12925456
13	0x3b089d9d	0.0020845898
14	0x3ca6d100	0.02036333
15	0x3ca950ed	0.020668471
16	0x3e0152c9	0.12629236
17	0xbe20ef65	-0.15716322
18	0x3dc7f499	0.0976345
19	0x3db2a915	0.08723656
20	0x3de9483a	0.11390729
21	0xbde05eb4	-0.10955563
22	0xbd20d44d	-0.039264966
23	0x3d67ab11	0.056559626
24	0xbd8bb21a	-0.068210796
25	0xbcef19da	-0.029187132
26	0xbe0103c2	-0.1259909
27	0x3dadecb1	0.08492411
28	0x3d42b8fe	0.047539704
29	0x3dc48d69	0.09597284
30	0xbd9152b2	-0.07095851
31	0xbd311780	-0.043235302

net.4.weight f4 [2, 32]
0	0x3e20244f	0.1563885
1	0x3d654f04	0.05598356
2	0x3da7e7a9	0.081984825
3	0x3e29ec19	0.1659397
4	0x3d22843e	0.039676897
5	0x3dc9f2d7	0.09860771
6	0xbd3dbecf	-0.046324547
7	0x3e375666	0.17904052
8	0x3e20aec2	0.15691665
9	0xbdc51bba	-0.09624429
10	0x3db3febc	0.08788821
11	0xbc5edbe1	-0.013602228
12	0x3e038300	0.12842941
13	0x3e47aded	0.19499941
14	0x3e10e3f0	0.14149451
15	0x3e210fb8	0.15728652
16	0xbe0d58f1	-0.1380346
17	0x3e016bf6	0.1263884
18	0xbdd354f4	-0.10318938
19	0x3d8451f5	0.064609446
20	0x3dd80bd8	0.10549134
21	0xbe0f14e3	-0.13972811
22	0x3e5f2f99	0.21795501
23	0x3db95a8d	0.09050474
24	0xbe1b1035	-0.15142901
25	0x3e43a59a	0.1910614
26	0xbdc3adf4	-0.09554663
27	0xbd5c35a8	-0.053762108
28	0x3e09dc5f	0.13462971
29	0xbcb5951c	-0.022165827
30	0xbcb5f3d7	-0.022210998
31	0xbd1f17d9	-0.038841102
32	0x3e59e03e	0.21276948
33	0xbd012ac6	-0.031534933
34	0x3e2ac561	0.16676857
35	0xbc11e7c4	-0.008905355
36	0x3e4ec228	0.20191252
37	0x3d87ae6b	0.066250645
38	0x3db17d27	0.08666449
39	0xbd0cd19b	-0.034379583
40	0x3de4ae49	0.11166055
41	0xbd78f963	-0.06078471
42	0x3e05ca59	0.13065471
43	0x3debd04b	0.11514338
44	0xbe073a56	-0.13205847
45	0xbcf62a7e	-0.030049559
46	0x3d87dd65	0.066340245
47	0x3e3bd360	0.18342352
48	0xbe203953	-0.15646867
49	0x3ce17219	0.027520226
50	0x3c712341	0.014717878
51	0x3e018847	0.12649642
52	0xbe0e9191	-0.13922717
53	0x3daa5f96	0.08319013
54	0xbd37b421	-0.04484952
55	0x3e019265	0.12653501
56	0x3db533ea	0.088477924
57	0xbe0530bf	-0.13006876
58	0xbba084ce	-0.004898644
59	0xbe13b1e8	-0.14423335
60	0x3d4f8b2c	0.050669834
61	0x3e1ac5d7	0.15114532
62	0x3e290ec8	0.16509545
63	0xbdc6c2f5	-0.09705154

net.4.bias f4 [2]
0	0x3d55fcf6	0.052243195
1	0x3c8135dc	0.015772752
