reports/experiments/nn_20251016_130446_nn_hidden(32, 32)_lr0.0005/artifacts/model.pt (torch, 7997 bytes, 6 tensors)

net.0.weight f4 [32, 5]
00000000: c332 1b3d 2e72 683e 139e 73be ee79 8b3d
00000010: c3b3 c83e b61b ee3e bf25 9abe fe5f f1bd
00000020: 0afc fc3d 9f5d a63e 6ca7 9ebe d1db 1ebe
00000030: d4c8 0b3e 4b2b a23e efe1 82be bfcc 223e
00000040: dbc1 203e 75e3 173e c335 3ebd aaf2 1b3d
00000050: 387f ad3e dfbc 113b 3fd6 c43e 945c 8c3d
00000060: 3205 833e 8072 dd3e e4f9 51be f4a7 4b3d
00000070: 276d 33be df3c b8bd 1cef ccbe 4e88 cb3e
00000080: 08c2 c5bc 6069 66be a910 40be ceaa c13e
00000090: 4247 83be 7b0e 4fbd 8fd5 283e 707b 923e
000000a0: 0cb8 763e b483 afbe 6041 273e 9da5 f6bd
000000b0: 77a3 9dbd cdc7 a9be 13e6 fa3d 2094 55be
000000c0: 70bf 57be 7060 abbc 0a19 abbe 6afd d23e
000000d0: 8508 473e a265 bf3e 2c5e 90be 4136 1cbe
000000e0: d18c b23e 82c6 533e 8f6e 8d3e 4ab7 62be
000000f0: 15b4 92be 6d63 843e e95b cbbe c2b8 9bbd
00000100: 1be3 e8bd d261 a63e 3d94 e6bb 542b d23e
00000110: 7872 a23c 56a1 88bd 0470 b53e ffc6 833d
00000120: 4909 d93e 00fb 33be cc15 a5be 8635 973e
00000130: 0945 c1be 273f af3e c97f e03d e6a0 edbc
00000140: 64c5 76bd 2889 8f3d 45e6 a63e a21a 2a3c
00000150: 92c0 a63e dd14 80bd c02f b93e 5450 273e
00000160: 8cf0 5bbe 5b5a 903e 6cba efbd b89a 63be
00000170: 3d19 b7bd ee63 773e c49a 033e f5b4 903e
00000180: 0d2c 893e 5279 953e 859e a43e ff4e d2be
00000190: a0ee ccbe dc5a 0c3e 48bc afbe 6ca7 723d
000001a0: ab24 16be c3d8 72be d44d e43e 8170 fdbd
000001b0: da46 003f cce8 63be af96 b7be 6f5a afbd
000001c0: 94ca 70be 3519 25bd e7bf 61be 08ab 45be
000001d0: 3b42 ee3d 54af 813e bb3e 7c3e 4ceb bfbe
000001e0: 8cf8 f73e 7e79 a13e 2cd4 9bbe 6db2 a93e
000001f0: a5af f13d e4d3 23bc 8d14 e93e 8f3f 07bc
00000200: d559 07bc 971a ff3d 5007 24be 421d 033f
00000210: 4e67 d43e c2d6 f43c 6e03 003e c5bc c1bd
00000220: eef8 3ebe 0cec dfbe 63af c4bd 7b7a 743d
00000230: 4f0d a3be 8727 703e 618f efbd 7421 6bbe
00000240: 2415 b8be e662 72be 2f8a cf3e 4772 cbbe
00000250: c7ce c8be af66 493e 1abb bc3d 0e52 923e
00000260: 5f92 d33e 2ad8 99be 602d 0c3e 4354 9f3e
00000270: 9c39 dcbe 6cdd 07be a9ab 3e3e 1d5d bcbd
0.037890207 0.22699806 -0.2379077 0.068103656 0.39199647 0.46505517 -0.30106923 -0.11785887
0.1235276 0.32493302 -0.30987108 -0.15513541 0.13650829 0.31673655 -0.25563 0.15898417
0.1569895 0.14832862 -0.04643799 0.03807322 0.33886123 0.002223782 0.38444707 0.068535954
0.255899 0.4325142 -0.20505482 0.04972072 -0.17522107 -0.08995985 -0.40026176 0.3975243
-0.024140373 -0.22501135 -0.18756355 0.37825626 -0.25640303 -0.05055092 0.16487716 0.286098
0.24093646 -0.3428017 0.16333532 -0.12043307 -0.07697194 -0.33160248 0.122509144 -0.20857286
-0.21069121 -0.020920008 -0.3341754 0.41208965 0.19436844 0.37382227 -0.28196847 -0.15255071
0.3487306 0.20681193 0.27623412 -0.22140232 -0.28653017 0.25857106 -0.3971856 -0.07603599
-0.11371442 0.32496506 -0.0070367143 0.41048682 0.019829974 -0.066713974 0.35437024 0.0643444
0.42389897 -0.17576218 -0.32243192 0.29533023 -0.37747982 0.3422787 0.10961873 -0.029007386
-0.06024684 0.07008582 0.32597557 0.010382326 0.32568794 -0.06253979 0.36169243 0.16339236
-0.2147848 0.28193936 -0.11705479 -0.2222699 -0.08940361 0.24159214 0.12852007 0.2826306
0.2679142 0.29194123 0.3215219 -0.41075894 -0.40025806 0.13706535 -0.34323335 0.059241697
-0.14662425 -0.237155 0.44590628 -0.12374974 0.5010811 -0.22256774 -0.3585715 -0.08562171
-0.23514777 -0.040307242 -0.22045861 -0.19303524 0.11633726 0.25329077 0.24633305 -0.37484205
0.48431814 0.31538004 -0.30435312 0.3314394 0.1180108 -0.009999249 0.45523492 -0.0082549
-0.008261164 0.124562435 -0.16018414 0.5121652 0.41485065 0.02988756 0.12501308 -0.09459833
-0.18649647 -0.43734777 -0.09603765 0.05968712 -0.3184609 0.23452578 -0.11697269 -0.2296198
-0.3595363 -0.2367054 0.40535113 -0.39735624 -0.3922026 0.19668077 0.09215374 0.28578228
0.4132261 -0.30047733 0.13689184 0.31118974 -0.43012702 -0.1326806 0.1862017 -0.091974474

net.0.bias f4 [32]
00000000: 425d 8f3e 5f98 4abe 77c1 7dbd a90b 7cbe
00000010: 603e fcbd 93b8 c4be 4314 26bd 53fd 64be
00000020: 73ea 94be be8d 77be 9a49 063e cbce 70be
00000030: 602b a93e 91e5 123e e124 dabc 381b 3c3e
00000040: d1e1 b5be 46c4 4abe a441 3e3d ea93 e73e
00000050: b962 ac3e 13a5 28be e376 73be b305 8cbe
00000060: f73f 433e 3d26 f63e 13bd b7bd 5305 82bc
00000070: 800f dbbe 6814 213e 702f b3be 0b9b 37bc
0.28000838 -0.19784687 -0.06195208 -0.24613823 -0.123165846 -0.3842207 -0.040546667 -0.2236226
-0.2908512 -0.24175164 0.13114014 -0.23516385 0.33040905 0.14345385 -0.026628913 0.18369758
-0.35523847 -0.19801435 0.04644932 0.45230037 0.3366907 -0.16469221 -0.2377582 -0.27348098
0.1906737 0.48076048 -0.0897161 -0.01587168 -0.42785263 0.1573044 -0.3499713 -0.011206399

net.2.weight f4 [32, 32]
00000000: 9dba 0e3e f93e 28be 393a cdbd 8cc9 0abe
00000010: fbab 203e 6708 b1bd 6980 f33c 2c42 a2bd
00000020: 8f15 6dbd a47d d7b7 ca1e 43bd 9fa0 fabd
00000030: 9c4f 433d e331 21be 0112 53bd a6e5 143e
00000040: e2d0 cfbd 2597 19be 5d4f 22be 90d8 313d
00000050: 6667 a33d 5deb 52bd 4517 243e 03a8 9b3d
00000060: 6f17 bbbd 5b8d 723d 7a25 983d e637 de3d
00000070: e7bf 7a3d fb43 083e 5d68 49bd 646f 0dbe
00000080: 8cc6 333e 24da 543d ca57 133e ab95 653e
00000090: 2841 133d 8243 363c 0d47 9cbd da89 803e
000000a0: 1790 25bd 23cf ddbd 6cfc 423e 4ef9 89bc
000000b0: c746 0fbe 5e53 783e a998 363e 01c9 523e
000000c0: 62f9 ab3d 3820 3a3e e263 993d 94fa 823d
000000d0: f836 d8bd f14d 523e f7ad 94bd 46bb 643d
000000e0: 48ff cf3d 69bc aabd 58ab cebc 6235 e2bd
000000f0: 088f 7d3d 2d92 1f3c f781 013e 587a 18be
00000100: 8f64 8cbd d48f bebd 1508 ed3d 045a febd
00000110: 064f 09be 59e6 c2bd a507 c6bd ff59 4f3d
00000120: e382 943d 77e1 d13d f535 3e3d 290e a3bd
00000130: dec1 16be 574c 643d efe8 183e 6cec 1239
00000140: 4d25 163e 1244 c6bd aa21 723d fe7f 203e
00000150: fb19 1d3e 616d 06be 8eab ef3d 9505 09be
00000160: 4be4 c2bd aa31 bfbd 6aa0 f43d 34de 29be
00000170: ebf1 b9bd d5aa 93bd 59c0 15be 5b41 2c3e
00000180: 26fa eebd 1e3a 843d d57f 893d c1b2 b7bc
00000190: 97cd d9bd bc1d 19be 2e17 123e cdf9 88bd
000001a0: 3bbd 15bc 218f 5ebd a729 c63c 4a94 033e
000001b0: 292d ae3d 337e 09be ff3e be3d 76cc 2dbe
000001c0: 559a 0dbe f243 53bd c9ec 8abd 3e7c 693d
000001d0: fdf8 0b3d 8e35 263e 0d19 e9bd 7762 df3c
000001e0: 491b e83c 14b6 07be b748 23be 5a5f ebbc
000001f0: 4aa0 2d3c 0877 e4bd 9ca1 d0bd 2e9b 2a3e
00000200: 68d7 f1bd 251d b5bd b8b4 8dbd 8b92 3a3d
00000210: 7a1e b43d 90b8 28be f32a acbd 5001 d1bc
00000220: cf73 03be e5dd 2bbe 67a1 92bd 8389 173d
00000230: b5b4 89bd dc73 05be 4303 083c 3561 453d
00000240: eeb2 1abd 5a59 12be 9dd6 0ebe 59ce c53c
00000250: e34d 33be 9a35 b63d 0468 0e3d 3e8c 713d
00000260: 4d4c 0c3e 8f83 1ebe afce 89bd 55b0 ab3d
00000270: 64ac 33bd 81d3 bbbd 2ea0 18bd 536a c3bd
00000280: 2dc4 093d 8715 fcbd 7dcb 1b3e 8b85 5bbb
00000290: 7dc1 a4bd f0a4 eebd 6dd8 25be 234a b8bd
000002a0: 39fd dfbd 6344 3e3d 6ac5 b4bd 1819 40be
000002b0: c7c0 f83d 4f0a 153e 0ecf c2bd d7eb 333d
000002c0: 1ef7 103c 9de2 3ebd 16e4 3dbd 1816 1f3e
000002d0: dcc9 ce3c 324b 47be 02b0 c7bd eb21 d23d
000002e0: 3182 ac3d f63d 16be 5e9d 51bc e4f7 b0bc
000002f0: 65a4 093e 4d7e f1bd 094d e1bd 676d 263e
00000300: 641a fbbd 1458 223e c586 cabd 670d 89bd
00000310: f20f 04be 8aa7 9cbd 36e4 88ba 5c6d 8dbd
00000320: 153d 13be fcea 243e 4f0d 4d3c 67ba 7e3d
00000330: 4a45 c93d e468 cbbd ca34 0d3e 7f5e 1cbe
00000340: dcf5 943d 68a5 1e3e 8bf4 883d d2d5 cabd
00000350: b866 cebd ab78 04be f64d febd 7d99 b93d
00000360: 300f bc3c c627 b53b 9373 8e3d 66f8 343d
00000370: 3c65 a7bc d6b8 123e 1337 163d ae02 0e3e
00000380: ce93 96bd 89ae ae3d 692e c0bc 1410 883c
00000390: 6ab3 d3bd 5b63 163e a972 163e 78ce 58bd
000003a0: 118a 8cbd ba20 2abe f719 203d 0313 2bbe
000003b0: 63de ac3d 911f 3b3c 5923 28be d8ee 05be
000003c0: 044f 2abe 6d95 1cbe 292f d83d f420 e83d
000003d0: 8c56 d83c cbcb 913c 3f94 163e fbf3 493d
000003e0: 7358 23be ab29 60bd 5b48 a4bd 1c22 d63d
000003f0: d3a7 023e 34ab 21bd 776a a8bd 9659 45bd
0.13938375 -0.16430272 -0.10020871 -0.13553447 0.15690605 -0.08644181 0.029724317 -0.079227775
-0.057881888 -2.5688503e-05 -0.047636785 -0.12237667 0.047683343 -0.15741687 -0.05153084 0.14540729
-0.10147263 -0.14999063 -0.15850587 0.04341942 0.07978706 -0.05149399 0.16024502 0.07600405
-0.09135329 0.05921684 0.07429023 0.108505055 0.06121817 0.13307182 -0.049171794 -0.13812023
0.17556208 0.051965848 0.14388958 0.22420375 0.03595081 0.011124494 -0.07630739 0.25105172
-0.040420618 -0.10830524 0.19041604 -0.01684251 -0.13991843 0.24250552 0.17831673 0.2058449
0.08397175 0.18176353 0.07489754 0.0639545 -0.105573595 0.20537545 -0.07259744 0.05584266
0.10156113 -0.08336718 -0.025228187 -0.11045338 0.061903983 0.009739441 0.12647234 -0.1489042
-0.068551175 -0.09304777 0.11573807 -0.12419513 -0.13409051 -0.095165916 -0.09669427 0.050622936
0.07251527 0.10248082 0.046438176 -0.07961685 -0.14722392 0.055736866 0.14932607 0.00014011719
0.14662667 -0.09680952 0.059114136 0.15673825 0.15341942 -0.13127662 0.11702643 -0.13381036
-0.095162 -0.093356445 0.11944659 -0.1658867 -0.09079345 -0.07210318 -0.14624156 0.16821806
-0.11668806 0.064563975 0.06713835 -0.022424104 -0.10634916 -0.14952749 0.14266655 -0.06688271
-0.009139354 -0.054335717 0.024189783 0.12849537 0.08504707 -0.13427047 0.09289359 -0.16972527
-0.13828404 -0.05157847 -0.067834444 0.057003252 0.034173 0.16231367 -0.11381731 0.027268631
0.028333323 -0.13253051 -0.15945707 -0.02873199 0.010597298 -0.11155516 -0.101870745 0.16660759
-0.118086636 -0.088434495 -0.06919235 0.04554991 0.087948754 -0.16476655 -0.084066294 -0.025513321
-0.12837146 -0.16783865 -0.07159691 0.036996376 -0.0672392 -0.13032478 0.008301559 0.048188407
-0.037768297 -0.14291897 -0.13949056 0.024146246 -0.1751018 0.088969424 0.034767166 0.058971636
0.13700981 -0.15479873 -0.06728875 0.08383242 -0.043865576 -0.091712005 -0.037262134 -0.09541764
0.033634353 -0.123087935 0.15214343 -0.0033496346 -0.080447175 -0.11652553 -0.16195841 -0.089985155
-0.1093697 0.046451937 -0.08826716 -0.18759573 0.12146144 0.14554714 -0.09512149 0.043926086
0.00884798 -0.046602834 -0.046360098 0.15535772 0.025242738 -0.19462278 -0.09750368 0.102603756
0.084232695 -0.14672074 -0.012793867 -0.021602578 0.13441618 -0.11791668 -0.110010214 0.16252671
-0.12260893 0.15853912 -0.098889865 -0.066920094 -0.12896708 -0.07649143 -0.0010443989 -0.06905624
-0.1437877 0.16105264 0.01251538 0.062189486 0.09827669 -0.09932116 0.13789669 -0.15270422
0.072734565 0.15492785 0.06687268 -0.09904064 -0.10078186 -0.12936656 -0.124172136 0.09062479
0.02295646 0.005528423 0.06955638 0.044182204 -0.020434014 0.14328322 0.036673617 0.1386821
-0.0735241 0.08529384 -0.02345963 0.01660923 -0.10336955 0.14686339 0.14692177 -0.05293128
-0.068622716 -0.16614047 0.039087262 -0.16706471 0.084408544 0.0114211 -0.16419734 -0.13079393
-0.16631705 -0.15291376 0.1055587 0.1133441 0.026408456 0.017797371 0.14704989 0.049304944
-0.1595171 -0.054727238 -0.08021613 0.104557246 0.12759332 -0.039469913 -0.082234316 -0.04818114

net.2.bias f4 [32]
00000000: 8ee3 1a3e 63cb 4e3d 85bb 21be 1026 c6bd
00000010: 7880 073d 97d1 863d a97c 2f3d 05e4 1c3b
00000020: 4342 583d 8f2e 553d 030b 9ebd c1a9 82bd
00000030: a357 5abd 2c09 3a3e e687 ca3c e653 30be
00000040: dcc9 313e b959 e83d 3cf2 a7bd 967b 5b3c
00000050: 5e36 adbc 56b8 f53d 47fd dcbd f178 f9bc
00000060: 8a93 54bd 6e42 5d3d 4cd1 98bd a4bb 0abe
00000070: 8391 913d caec 1a3e 0af2 cc3c 5917 873d
0.15125868 0.050486933 -0.1579419 -0.096752286 0.0330815 0.06582945 0.042843495 0.0023939621
0.052797567 0.052046355 -0.07716944 -0.06380034 -0.053306233 0.18167561 0.024723005 -0.17219505
0.1736216 0.11345238 -0.082004994 0.013396164 -0.021144088 0.1199805 -0.10790496 -0.030453177
-0.051898517 0.05401843 -0.07461795 -0.13548142 0.07107832 0.1512939 0.025017757 0.0659625

net.4.weight f4 [2, 32]
00000000: f63a eebd babf 893c 42e4 e43c af95 c2bd
00000010: b261 febd bbfb 03be 7b12 903d 9e8e a6bd
00000020: fa32 b7bd 22c3 a43d cfba bc3c f7a1 20be
00000030: 1b84 38bd 087e 833e a796 e0bd 05a4 ccbd
00000040: add3 a63d 9fd3 e8bc fcbe 0c3e 62c1 26be
00000050: a4fd f4bd b15c 30bd 1dd7 ecbd 7122 94bd
00000060: 798b 05be 821c fa3c 7356 263e 5fa2 f63d
00000070: 7240 723c 53f7 673e bec3 0fbe 5692 00be
00000080: f050 5cbd 89a3 133e 4d98 013c 6d6e 133e
00000090: c4a9 203e d34b 8abd 1aa0 183e cad3 b1bd
000000a0: 0269 4ebd 2a12 efbd 031e 103e be42 04be
000000b0: 4e7c aa3c f92a 9c3d 7cea 223d f3b4 b2bb
000000c0: 9596 4a3e 9970 cebd 3fbb afbc e9a2 3bbd
000000d0: 3653 983d a23e 673e 5780 593c 9591 553d
000000e0: 103a 8cbd a3e1 4e3e 6204 4a3e 6879 2bbe
000000f0: c48e 19be 2820 c03d 4f1b 06be 140b 6abd
-0.1163234 0.016815055 0.027940873 -0.09501206 -0.12420978 -0.12888996 0.07034775 -0.08132671
-0.0894527 0.08045031 0.023038296 -0.15686785 -0.04504786 0.25682092 -0.10966235 -0.09992222
0.08145843 -0.028421221 0.1374473 -0.16284707 -0.119624406 -0.043057147 -0.11564467 -0.07233132
-0.13041486 0.030531172 0.16243915 0.120426886 0.014785873 0.2265294 -0.14039513 -0.12555823
-0.053788126 0.14417852 0.0079098465 0.14397593 0.1568976 -0.067527436 0.14904824 -0.08682974
-0.050393112 -0.116733864 0.14073949 -0.12916085 0.020811226 0.07625384 0.039774403 -0.0054536997
0.19784005 -0.1008007 -0.02145159 -0.04580966 0.07437746 0.22582486 0.0132752275 0.05214079
-0.06847012 0.20203261 0.19728234 -0.16745532 -0.14995867 0.09381133 -0.13096355 -0.05713947

net.4.bias f4 [2]
00000000: 8811 403e f256 02be
0.18756688 -0.1272848
